app/src/main/assets/mnist.tflite (tflite, 116632 bytes, 6 tensors)

arith.constant5 f4 [10]
0	0x3be29d95	0.006915758
1	0x3e2dc6fd	0.1697044
2	0x3d17848f	0.036991652
3	0xbd14bb3b	-0.03631137
4	0xbd3894e8	-0.045063883
5	0x3cef97de	0.02924722
6	0xbc2d151d	-0.010564116
7	0x3d581539	0.052754615
8	0xbdf84678	-0.12122816
9	0xbd1eebbf	-0.038799044

arith.constant6 f4 [32, 3, 3, 1]
0	0xbe15e6be	-0.14638802
1	0xbd1bb740	-0.038016558
2	0x3d2c9349	0.04213265
3	0x3ccf14d5	0.025278488
4	0x3dfef134	0.124483496
5	0x3e2f8c71	0.17143418
6	0x3d103acd	0.035212327
7	0x3d9b75b9	0.07590813
8	0xbe166fc0	-0.14691067
9	0x3b553df6	0.0032538152
10	0x3d3c23dc	0.045932636
11	0x3e440b21	0.1914487
12	0x3e00d6b1	0.12581898
13	0x3de1c2b2	0.11023463
14	0x3db0ac3e	0.086266026
15	0x3d88ce41	0.06679965
16	0xbd9bfb89	-0.07616336
17	0xbe970920	-0.2949915
18	0x3dd8fbe3	0.105949186
19	0xbd53c235	-0.051698882
20	0x3dd682d3	0.104741715
21	0x3d80486e	0.06263815
22	0x3dabfa15	0.08397309
23	0x3bed8d6a	0.007249524
24	0xbdab3645	-0.083599605
25	0xbc0c505f	-0.008564084
26	0xbda13594	-0.07871547
27	0x3e6a496b	0.22879569
28	0x3d0955ac	0.03352897
29	0xbe775bce	-0.24156114
30	0x3d6fa1de	0.058503978
31	0x3e1d9673	0.15389423
32	0xbe09966c	-0.13436288
33	0xbe30f3d5	-0.17280515
34	0x3e385463	0.18000941
35	0x3de4e40e	0.111763105
36	0xbe7cce21	-0.24688007
37	0xbdb41f31	-0.08795012
38	0x3e622c64	0.22087246
39	0xbe2371fb	-0.15961449
40	0x3e387d37	0.18016516
41	0x3d3320e0	0.043732524
42	0x3d29eec5	0.041487474
43	0x3c4631fb	0.012096877
44	0x3cb1135b	0.021615675
45	0x3cb102fd	0.02160787
46	0xbdee30e2	-0.116304174
47	0xbdc9628d	-0.0983325
48	0x3c674f07	0.014117963
49	0x3cdb0d0a	0.026739616
50	0xbd73a2bd	-0.05948137
51	0x3d1ea0a1	0.038727406
52	0x3d81b478	0.0633325
53	0x3c868682	0.01642156
54	0x3d16f08f	0.03685051
55	0xbd92926c	-0.07156834
56	0x3e6b83cd	0.22999497
57	0x3deeab87	0.1165381
58	0xbc0bca68	-0.008532144
59	0xbd325ae9	-0.04354373
60	0xbd3d06e3	-0.046149146
61	0xbdaee562	-0.08539845
62	0xbd82c419	-0.06385059
63	0x3ddb4632	0.10706748
64	0xbb917e0e	-0.0044400757
65	0x3de625ce	0.112376794
66	0xbdcef5d1	-0.101054795
67	0x3de3324f	0.1109358
68	0x3aa55334	0.0012613297
69	0xbe6d545e	-0.23176715
70	0x3de8f3c2	0.11374618
71	0x3dd2e641	0.10297824
72	0xbe9466fe	-0.28984827
73	0xbe4ec6d3	-0.20193033
74	0x3d703559	0.058644626
75	0xbe1d2b33	-0.1534851
76	0x3ca62358	0.020280525
77	0x3d0db164	0.034593
78	0x3e142131	0.14465787
79	0xbd32ea7b	-0.04368065
80	0x3e7dd4e0	0.24788237
81	0x3e9e4f66	0.3091995
82	0x3e51971f	0.20467804
83	0x3dac088c	0.08400068
84	0x3dcf886d	0.10133443
85	0xbce46d05	-0.027884016
86	0xbd1e4f9f	-0.03865015
87	0xbdd07530	-0.10178602
88	0xbe8893a9	-0.26675156
89	0xbe9a5034	-0.30139315
90	0xbbd96510	-0.006634362
91	0xbdce1585	-0.10062698
92	0x3c257cc0	0.0101005435
93	0x3ea4390e	0.3207478
94	0x3d71f705	0.059073467
95	0xbe97783c	-0.2958392
96	0x3d039c79	0.032131646
97	0x3e0347a2	0.12820294
98	0xbdaf1e6d	-0.08550725
99	0xbd7f99ac	-0.062402412
100	0x3e5cd2dd	0.21564813
101	0x3e573877	0.21017633
102	0xbe020060	-0.12695456
103	0xbe173bbd	-0.14768882
104	0x3e49e518	0.19716299
105	0xbe906913	-0.28205165
106	0xbe075e74	-0.13219625
107	0x3e3630f6	0.17792115
108	0xbdb91ac4	-0.09038308
109	0xbdbba69b	-0.09162637
110	0x3d880411	0.066414006
111	0x3e2fb0a2	0.17157224
112	0x3d751e77	0.059843507
113	0x3d3f722b	0.04673974
114	0x3e15a72c	0.14614552
115	0x3b4fb6d6	0.0031694672
116	0x3988d392	0.00026097574
117	0x3d150faf	0.03639191
118	0xbda7f567	-0.08201104
119	0xbe9fedc2	-0.31236082
120	0x3dfd9d69	0.12383539
121	0x3e2a8684	0.16652876
122	0xbdd00498	-0.10157126
123	0x3e3b26bf	0.18276499
124	0x3e149c51	0.14512755
125	0xbc374925	-0.011186873
126	0x3e4c9a73	0.19980793
127	0x3e82e29e	0.2556352
128	0x3e5e0db2	0.21684912
129	0xbc38e4b4	-0.011284996
130	0xbe19d404	-0.15022284
131	0xbe2243be	-0.15846154
132	0xbdbdd9a6	-0.09270029
133	0xbe5eff42	-0.2177706
134	0xbd3559ee	-0.044275217
135	0xbe7cd3d1	-0.24690177
136	0xbd5c55b3	-0.053792667
137	0x3d7b342b	0.061329048
138	0xbecfdcc7	-0.40598127
139	0xbd994274	-0.07483378
140	0x3e9e93ff	0.30972287
141	0xbe8b8445	-0.2724935
142	0xbdc9c797	-0.09852522
143	0x3e159555	0.14607747
144	0x3d3e50f3	0.046463918
145	0x3c03a71d	0.008035448
146	0xbd5dd686	-0.054159664
147	0x3dc4ce8d	0.09609709
148	0x3d84da8c	0.06486997
149	0x3dddb4c7	0.10825496
150	0xbdf52f7b	-0.11971947
151	0xbe530ac3	-0.20609574
152	0x3e0ce65d	0.13759752
153	0xbe4a40e8	-0.19751322
154	0xbd94c93e	-0.072649464
155	0xbe1aec37	-0.15129171
156	0x3d67d982	0.056603916
157	0x3dc857b7	0.09782355
158	0x3e294b7e	0.16532704
159	0xbe494e1d	-0.19658704
160	0x3cce0dee	0.025153127
161	0x3d9169d5	0.07100264
162	0xbdca9f5b	-0.09893676
163	0xbe8fb246	-0.280657
164	0xbe4a0610	-0.19728875
165	0x3dc57ebe	0.09643315
166	0xbcc4bf94	-0.024017133
167	0x3e617708	0.22018063
168	0x3e24231a	0.16029015
169	0x3cfe0aec	0.031011067
170	0x3e52e02e	0.2059333
171	0x3e4661b4	0.19373208
172	0xbe0e3b92	-0.13889912
173	0xbe26b5f5	-0.16280349
174	0x3e698e2e	0.22808143
175	0xbe6daab8	-0.23209655
176	0xbe67325d	-0.22577806
177	0x3eb05de5	0.34446636
178	0xbdf6808c	-0.12036237
179	0xbddc1b2d	-0.10747371
180	0xbc2f46f1	-0.010698066
181	0xbe19fb45	-0.15037258
182	0x3c9752e6	0.018472146
183	0x3e5e8bcd	0.21733017
184	0x3e53adf3	0.20671825
185	0x3d3ba392	0.04581029
186	0xbe796ff5	-0.24359114
187	0xbd88b438	-0.06674999
188	0xbe18e6ed	-0.14931841
189	0xbe21011a	-0.15723076
190	0xbec9707e	-0.39343637
191	0xbebe5456	-0.37173718
192	0x3e40b492	0.18818882
193	0x3dd0a35b	0.101874076
194	0xbda29b2d	-0.07939754
195	0x3e066b45	0.13126858
196	0x3e6d12ff	0.23151778
197	0x3e2c4c49	0.16825975
198	0x3eb3dcea	0.35129482
199	0x3e9ce892	0.30646187
200	0x3cda8ea2	0.02667934
201	0x3df8ad10	0.12142384
202	0xbd5e1f8b	-0.0542293
203	0xbe493397	-0.19648586
204	0xbc5ef424	-0.013608012
205	0xbe1a6b01	-0.15079881
206	0xbf00fc6b	-0.5038516
207	0xbe911527	-0.2833645
208	0xbe02a8d5	-0.12759717
209	0x3cdbb0fa	0.026817787
210	0x3c620661	0.013795466
211	0xbd6573ec	-0.056018755
212	0x3e6f8a92	0.23392704
213	0xbe0894aa	-0.13337961
214	0x3e0f367b	0.13985626
215	0x3dab3f8b	0.08361729
216	0xbe4fe95a	-0.2030386
217	0xbd853a2b	-0.06505235
218	0x3e5925de	0.21205851
219	0x3e31c35a	0.17359677
220	0x3e510714	0.20412856
221	0xbd9be165	-0.0761135
222	0x3e00ca7a	0.12577239
223	0x3de56799	0.112014
224	0xbe9852f3	-0.29750785
225	0xbd88b20f	-0.06674587
226	0xbde08965	-0.10963706
227	0xbdaf73d5	-0.08567015
228	0xbd0e706c	-0.034775183
229	0x3e4f8c95	0.20268472
230	0xbe188646	-0.14894971
231	0x3ea741c2	0.32667357
232	0x3e36f5e3	0.17867236
233	0xbc79ab33	-0.015238571
234	0xbb54778d	-0.003241989
235	0x3ddf83fc	0.10913846
236	0x3e3fa0fb	0.18713753
237	0x3d9bca42	0.07606937
238	0x3e1aace6	0.15105018
239	0x3d71c59f	0.059026357
240	0xbe8eead8	-0.27913547
241	0xbe1091cf	-0.14118122
242	0x3cdc0d93	0.026861941
243	0xbd46c113	-0.048523974
244	0x3e0e7db2	0.13915136
245	0x3e16fe86	0.1474553
246	0x3e1828a9	0.1485926
247	0x3d37bb42	0.044856317
248	0xbd9f0efe	-0.077665314
249	0xbe860a75	-0.26179853
250	0xbe934fd9	-0.28771856
251	0xbde3e5e7	-0.11127835
252	0x3e1e01de	0.154304
253	0xbdca0423	-0.0986407
254	0x3dd4d850	0.10392821
255	0x3e1b2d1c	0.15153927

arith.constant7 f4 [64]
0	0x3c322614	0.010873336
1	0xbc0a71ec	-0.008450013
2	0xbcb1d596	-0.021708291
3	0xbdb366b6	-0.08759825
4	0xbda19694	-0.078900486
5	0xbd81b4e0	-0.06333327
6	0xbc870774	-0.016483046
7	0x3d1c210c	0.038117453
8	0x3d82bea2	0.063840166
9	0xbccee779	-0.02525686
10	0x3d0b3044	0.033981577
11	0xbd191759	-0.03737578
12	0xbd1420bf	-0.03616404
13	0xbd1fcc3e	-0.03901314
14	0xbd204736	-0.039130412
15	0x3d271a79	0.04079673
16	0x3c2466cc	0.010034274
17	0xba8628ca	-0.0010235545
18	0xbddd3996	-0.10801999
19	0x3c201c46	0.009772366
20	0xbccbf2b2	-0.024896
21	0xbceb08f5	-0.028690794
22	0xbbec831f	-0.0072177793
23	0xbd1821df	-0.037141677
24	0xbd5113d7	-0.05104431
25	0xbccfbc19	-0.025358247
26	0xbc942723	-0.018085068
27	0xbd20f138	-0.039292544
28	0xbd735f76	-0.05941721
29	0xbdc4ce35	-0.09609643
30	0xbca96351	-0.02067724
31	0xbd3e2480	-0.046421528
32	0xbd48668b	-0.048925918
33	0xbd135967	-0.035973933
34	0xbc895151	-0.016762407
35	0xbc7bae47	-0.015361375
36	0xbcb3f9ea	-0.021969754
37	0x3c4c5e97	0.012473724
38	0x3d0c5c90	0.034267962
39	0x3c1b3c8b	0.009474884
40	0xbbc5614d	-0.006023562
41	0xbd13f63c	-0.0361235
42	0xbce07993	-0.027401721
43	0xbcc18ffa	-0.023628224
44	0xbd6dde5d	-0.05807339
45	0x39035696	0.0001252539
46	0xbd2e9b0a	-0.042628326
47	0xbcf095e3	-0.029368347
48	0xbd3a4613	-0.045476984
49	0xbd68214d	-0.056672383
50	0xbca2657d	-0.019823784
51	0xbbfa82f8	-0.007645007
52	0x3b95511c	0.004556788
53	0x3c551062	0.013004394
54	0x3c5b0fdd	0.013370481
55	0x3be78192	0.0070650065
56	0xbd867a1d	-0.0656626
57	0xbd9d313e	-0.07675408
58	0x39ef1eb9	0.00045608522
59	0xbda2e226	-0.07953291
60	0xbcd977fe	-0.026546475
61	0xbcee9c98	-0.029127404
62	0xbd2f95ea	-0.04286758
63	0xbdfff3f5	-0.12497703

arith.constant8 f4 [32]
0	0xbdd23c64	-0.10265425
1	0xbd4d6360	-0.0501436
2	0xbdc89da4	-0.097956926
3	0xbdbaeb65	-0.09126929
4	0xbcb3f29d	-0.021966273
5	0xbdc2e921	-0.09517122
6	0xbcfb6434	-0.030687429
7	0xbd86bca2	-0.065789476
8	0x3c4e5c16	0.012595197
9	0x3cd349bc	0.025791995
10	0xbd0c3621	-0.03423131
11	0xbc3b320b	-0.011425505
12	0xbda3d2fc	-0.079992265
13	0xbd57cd4b	-0.052686017
14	0xbb1ff5e1	-0.002440803
15	0x3d12adec	0.035810396
16	0xbde494ff	-0.11161231
17	0xbcb03199	-0.021508025
18	0xbc0c7880	-0.008573651
19	0x3cb4406b	0.022003373
20	0x3b96039e	0.004578068
21	0x3d18d34f	0.037310895
22	0x3beb8588	0.007187549
23	0xbc83ea5d	-0.016102964
24	0xbd649512	-0.055806227
25	0xbc8f4e0a	-0.017493267
26	0xbc256795	-0.010095497
27	0xbc1c55eb	-0.009541969
28	0xbdda4370	-0.10657394
29	0xbc4f541e	-0.012654332
30	0xbc989b90	-0.018628865
31	0x3d374d23	0.044751298

tfl.pseudo_qconst i1 [64, 3, 3, 32]
0	0x00	0
1	0xbc	-68
2	0xe0	-32
3	0xc1	-63
4	0x17	23
5	0xee	-18
6	0xeb	-21
7	0xea	-22
8	0x18	24
9	0xa6	-90
10	0xaf	-81
11	0x0e	14
12	0xf7	-9
13	0xfe	-2
14	0xbe	-66
15	0x4b	75
16	0xc8	-56
17	0x08	8
18	0x3e	62
19	0x97	-105
20	0xe8	-24
21	0x09	9
22	0xb2	-78
23	0x2a	42
24	0xe7	-25
25	0xd9	-39
26	0xcf	-49
27	0xaa	-86
28	0xc4	-60
29	0x32	50
30	0xa6	-90
31	0xef	-17
32	0xff	-1
33	0x11	17
34	0xec	-20
35	0xd0	-48
36	0x17	23
37	0xfe	-2
38	0xf7	-9
39	0xd2	-46
40	0x2e	46
41	0xcf	-49
42	0xf3	-13
43	0xbf	-65
44	0xe8	-24
45	0x15	21
46	0xc8	-56
47	0x0a	10
48	0xdd	-35
49	0xec	-20
50	0xfe	-2
51	0xed	-19
52	0x06	6
53	0x16	22
54	0xf0	-16
55	0x0a	10
56	0x0d	13
57	0x28	40
58	0xed	-19
59	0xf4	-12
60	0xd7	-41
61	0x3c	60
62	0xb1	-79
63	0xf2	-14
64	0xf6	-10
65	0xf1	-15
66	0xfd	-3
67	0xbf	-65
68	0x29	41
69	0xe8	-24
70	0x01	1
71	0xcf	-49
72	0x3d	61
73	0x21	33
74	0xfa	-6
75	0xee	-18
76	0x06	6
77	0xfa	-6
78	0x07	7
79	0xcb	-53
80	0xf1	-15
81	0xfc	-4
82	0xfc	-4
83	0x15	21
84	0x0b	11
85	0xee	-18
86	0x15	21
87	0x05	5
88	0xeb	-21
89	0xdf	-33
90	0xee	-18
91	0x38	56
92	0xed	-19
93	0x26	38
94	0xc8	-56
95	0x0b	11
96	0x12	18
97	0xf5	-11
98	0xe9	-23
99	0xc0	-64
100	0x45	69
101	0x0d	13
102	0x00	0
103	0xfd	-3
104	0x24	36
105	0x8b	-117
106	0x0b	11
107	0xcf	-49
108	0xfa	-6
109	0x28	40
110	0xb0	-80
111	0x04	4
112	0xc5	-59
113	0x0c	12
114	0x13	19
115	0x9f	-97
116	0xee	-18
117	0x1e	30
118	0xa8	-88
119	0x23	35
120	0x3e	62
121	0x32	50
122	0xee	-18
123	0xa4	-92
124	0xcb	-53
125	0x4c	76
126	0xc2	-62
127	0xb1	-79
128	0xfa	-6
129	0x0f	15
130	0xea	-22
131	0xbb	-69
132	0x03	3
133	0xe3	-29
134	0xe6	-26
135	0xd8	-40
136	0xb5	-75
137	0x03	3
138	0x0e	14
139	0xa3	-93
140	0x00	0
141	0xf9	-7
142	0x0e	14
143	0xc2	-62
144	0x02	2
145	0xe7	-25
146	0xe4	-28
147	0x1d	29
148	0x29	41
149	0xfe	-2
150	0xea	-22
151	0xce	-50
152	0x2f	47
153	0x21	33
154	0xeb	-21
155	0x26	38
156	0xc4	-60
157	0xe5	-27
158	0xe8	-24
159	0xfc	-4
160	0xcf	-49
161	0xe4	-28
162	0x07	7
163	0xea	-22
164	0xac	-84
165	0xb1	-79
166	0x02	2
167	0xc9	-55
168	0xc9	-55
169	0x37	55
170	0xed	-19
171	0xf7	-9
172	0xc1	-63
173	0xb5	-75
174	0x2d	45
175	0x98	-104
176	0xdf	-33
177	0xac	-84
178	0xa5	-91
179	0x28	40
180	0x42	66
181	0xe1	-31
182	0x2a	42
183	0xdc	-36
184	0xe2	-30
185	0x94	-108
186	0x0b	11
187	0x35	53
188	0xe3	-29
189	0x93	-109
190	0x13	19
191	0x16	22
192	0x00	0
193	0x0a	10
194	0xe1	-31
195	0xde	-34
196	0x32	50
197	0x24	36
198	0x11	17
199	0xe4	-28
200	0xf7	-9
201	0xfd	-3
202	0x12	18
203	0xdf	-33
204	0x0e	14
205	0x1a	26
206	0x02	2
207	0xfe	-2
208	0xe5	-27
209	0xd8	-40
210	0xce	-50
211	0xf2	-14
212	0xd7	-41
213	0xd3	-45
214	0x0f	15
215	0xe6	-26
216	0x11	17
217	0x2c	44
218	0xfe	-2
219	0xfe	-2
220	0x02	2
221	0xf9	-7
222	0xb7	-73
223	0xce	-50
224	0xb9	-71
225	0xcb	-53
226	0xd9	-39
227	0x26	38
228	0xb7	-73
229	0x07	7
230	0xdd	-35
231	0xbf	-65
232	0x81	-127
233	0x16	22
234	0x09	9
235	0xd1	-47
236	0xd2	-46
237	0x00	0
238	0x02	2
239	0xd7	-41
240	0xfc	-4
241	0xd3	-45
242	0x89	-119
243	0x3c	60
244	0xf6	-10
245	0xfa	-6
246	0x09	9
247	0x8e	-114
248	0xde	-34
249	0xf0	-16
250	0xb4	-76
251	0xef	-17
252	0x31	49
253	0x81	-127
254	0x2b	43
255	0xd5	-43

tfl.pseudo_qconst1 i1 [10, 9216]
0	0x17	23
1	0x06	6
2	0xfc	-4
3	0xf7	-9
4	0xf9	-7
5	0x01	1
6	0x01	1
7	0xed	-19
8	0x33	51
9	0xfe	-2
10	0xf4	-12
11	0xf8	-8
12	0x05	5
13	0x06	6
14	0xfb	-5
15	0x24	36
16	0xe7	-25
17	0xf2	-14
18	0x01	1
19	0xfe	-2
20	0x07	7
21	0x04	4
22	0xf1	-15
23	0xef	-17
24	0x04	4
25	0xf8	-8
26	0x03	3
27	0xea	-22
28	0xf6	-10
29	0xfb	-5
30	0x00	0
31	0x05	5
32	0xfa	-6
33	0xf7	-9
34	0x06	6
35	0x11	17
36	0xfd	-3
37	0xf6	-10
38	0xdb	-37
39	0x05	5
40	0xfd	-3
41	0xf8	-8
42	0xf7	-9
43	0xf6	-10
44	0x02	2
45	0xe8	-24
46	0x00	0
47	0x03	3
48	0x13	19
49	0xf9	-7
50	0x03	3
51	0xf5	-11
52	0xfc	-4
53	0xe2	-30
54	0xd7	-41
55	0xf6	-10
56	0x00	0
57	0xfc	-4
58	0xe1	-31
59	0x04	4
60	0xf9	-7
61	0xee	-18
62	0xf1	-15
63	0xf4	-12
64	0xf5	-11
65	0x14	20
66	0x00	0
67	0xfc	-4
68	0xf3	-13
69	0xfd	-3
70	0xf2	-14
71	0x00	0
72	0xfc	-4
73	0xed	-19
74	0x01	1
75	0xf2	-14
76	0xf2	-14
77	0x07	7
78	0xf3	-13
79	0x05	5
80	0xeb	-21
81	0x04	4
82	0xfc	-4
83	0xf4	-12
84	0xec	-20
85	0xf2	-14
86	0xdd	-35
87	0xe8	-24
88	0xfa	-6
89	0xf7	-9
90	0xfe	-2
91	0xe1	-31
92	0xfe	-2
93	0xfd	-3
94	0xf9	-7
95	0xf3	-13
96	0xfa	-6
97	0xf6	-10
98	0x0b	11
99	0x0d	13
100	0xe7	-25
101	0xe7	-25
102	0xe4	-28
103	0xf0	-16
104	0xf6	-10
105	0xf7	-9
106	0x0e	14
107	0xef	-17
108	0xfd	-3
109	0xf8	-8
110	0xfb	-5
111	0x0b	11
112	0xd3	-45
113	0xfb	-5
114	0xd9	-39
115	0xf5	-11
116	0xf5	-11
117	0xe3	-29
118	0xe3	-29
119	0xfa	-6
120	0xf8	-8
121	0xf8	-8
122	0xed	-19
123	0x02	2
124	0xff	-1
125	0xec	-20
126	0xea	-22
127	0xee	-18
128	0xe0	-32
129	0xfe	-2
130	0xe9	-23
131	0xf7	-9
132	0xf3	-13
133	0xfb	-5
134	0x01	1
135	0xe7	-25
136	0xeb	-21
137	0xf6	-10
138	0xe6	-26
139	0xe8	-24
140	0xf2	-14
141	0x06	6
142	0xf2	-14
143	0xf8	-8
144	0xe7	-25
145	0xfd	-3
146	0xfa	-6
147	0xfc	-4
148	0xf8	-8
149	0xf2	-14
150	0xde	-34
151	0xf2	-14
152	0x00	0
153	0xf3	-13
154	0xe7	-25
155	0xf6	-10
156	0xfb	-5
157	0xfa	-6
158	0xee	-18
159	0xea	-22
160	0xf7	-9
161	0xe2	-30
162	0x19	25
163	0x1e	30
164	0x15	21
165	0xcd	-51
166	0xe8	-24
167	0xfb	-5
168	0xf8	-8
169	0xf4	-12
170	0x10	16
171	0xed	-19
172	0xf1	-15
173	0xf2	-14
174	0xff	-1
175	0xfd	-3
176	0xca	-54
177	0x07	7
178	0xf3	-13
179	0xf3	-13
180	0xf2	-14
181	0xf6	-10
182	0xed	-19
183	0xfa	-6
184	0xed	-19
185	0xf4	-12
186	0xdd	-35
187	0xfa	-6
188	0xf1	-15
189	0xf3	-13
190	0xe2	-30
191	0xfe	-2
192	0xeb	-21
193	0xfb	-5
194	0xdf	-33
195	0xfe	-2
196	0xee	-18
197	0xf4	-12
198	0x03	3
199	0xf0	-16
200	0xe7	-25
201	0xe6	-26
202	0x05	5
203	0xee	-18
204	0xfb	-5
205	0x07	7
206	0xf3	-13
207	0xee	-18
208	0xe0	-32
209	0x07	7
210	0xfb	-5
211	0xf4	-12
212	0xef	-17
213	0xfb	-5
214	0xe3	-29
215	0xdb	-37
216	0xfe	-2
217	0xf7	-9
218	0xd9	-39
219	0x00	0
220	0xf8	-8
221	0x03	3
222	0xf7	-9
223	0xec	-20
224	0x02	2
225	0xfb	-5
226	0x12	18
227	0x0e	14
228	0x06	6
229	0xcb	-53
230	0xf9	-7
231	0xec	-20
232	0xf5	-11
233	0xf1	-15
234	0x05	5
235	0xec	-20
236	0xee	-18
237	0xf0	-16
238	0xf7	-9
239	0x0a	10
240	0xc9	-55
241	0x04	4
242	0xe5	-27
243	0xe9	-23
244	0x0b	11
245	0xed	-19
246	0xd0	-48
247	0xed	-19
248	0xf1	-15
249	0xfc	-4
250	0xdc	-36
251	0xf5	-11
252	0xf9	-7
253	0xea	-22
254	0xe9	-23
255	0xff	-1
